data.pth (torch, 3671 bytes, 6 tensors)

l1.weight f4 [8, 27]
0	0x3e55ff3b	0.20898144
1	0xbf147d05	-0.58003265
2	0x3eada869	0.3391755
3	0x3eb8d83c	0.36102474
4	0xbe3399ca	-0.17539135
5	0xbedc242c	-0.42996347
6	0x3ead4bca	0.33846885
7	0x3e974af5	0.29549375
8	0x3ec83a19	0.39106825
9	0x3f1aa1a4	0.60402894
10	0x3d0a11b4	0.03370829
11	0x3f165905	0.58729583
12	0x3ec37202	0.3817292
13	0xbed3a326	-0.4133541
14	0x3e2cd8fe	0.16879651
15	0x3b3ba2b7	0.002863092
16	0x3f00d1a0	0.5031986
17	0x3df16910	0.11787617
18	0x3e22d145	0.15900142
19	0xbe1c4867	-0.15261994
20	0x3ec594f6	0.3859021
21	0xbd955de0	-0.07293296
22	0x3e28f6ae	0.16500351
23	0x3f085d9e	0.5326785
24	0x3e14fb29	0.14548935
25	0xbe8a90be	-0.27063555
26	0xbd472db8	-0.048627585
27	0xbf06f10d	-0.52711564
28	0x3f81056a	1.0079777
29	0xbe070620	-0.1318593
30	0x3e722cc3	0.23649888
31	0x3f004ab9	0.5011402
32	0x3e1778f0	0.14792228
33	0xbea5e82f	-0.32403705
34	0x3e00ec3b	0.12590115
35	0x3e82d9c1	0.25556758
36	0xbf05b134	-0.52223516
37	0xbee0c7c5	-0.43902412
38	0x3ebc3afd	0.36763754
39	0x3ee4a72b	0.4465879
40	0x3f67b7e7	0.9051499
41	0xbea04788	-0.31304574
42	0x3eb0ed39	0.34555987
43	0xbe431aaa	-0.1905314
44	0xbe2539a4	-0.1613527
45	0xbf17dc25	-0.5932029
46	0x3f4176ad	0.7557171
47	0xbecf1154	-0.40442908
48	0xbd979a31	-0.074024566
49	0x3e7e3848	0.24826157
50	0x3f0a0297	0.539102
51	0x3dbd6383	0.09247496
52	0x3af5f7b7	0.0018765841
53	0x3e6b70e2	0.2299228
54	0x3f0f57e0	0.5599346
55	0xbe156347	-0.14588653
56	0x3e92631d	0.28591242
57	0xbe01ff0c	-0.12694949
58	0xbed3615d	-0.4128522
59	0xbd916348	-0.070990145
60	0x3f35a407	0.7095341
61	0x3dfe18cc	0.124070734
62	0xbdfbbbed	-0.122917034
63	0x3ed59c39	0.4172075
64	0x3f1f2bac	0.62176013
65	0xbed2060c	-0.41020238
66	0xbed16ca9	-0.40903214
67	0xbed7efef	-0.42175242
68	0x3ed5a622	0.41728312
69	0xbd6c6b86	-0.05771973
70	0x3ec4a029	0.38403443
71	0x3e629fe2	0.22131303
72	0xbd4ba7f0	-0.049720705
73	0xbd3c14e0	-0.045918345
74	0x3f1413b4	0.57842565
75	0xbe592614	-0.21205932
76	0xbe301635	-0.17195971
77	0xbe2fc952	-0.17166641
78	0xbe7606a8	-0.24025977
79	0x3ed85ae5	0.42256847
80	0xbe1ab51b	-0.15108149
81	0xbefd7114	-0.49500334
82	0x3e9e7e5d	0.30955783
83	0xbe6d88ec	-0.23196763
84	0x3ec3ba60	0.3822813
85	0x3e7f327b	0.249216
86	0xbe88c655	-0.26713815
87	0xbee2c856	-0.4429347
88	0x3e98a842	0.2981587
89	0x3e57f25a	0.21088544
90	0xbee8a7d3	-0.4544054
91	0xbecedf62	-0.40404803
92	0x3ea42fcd	0.3206772
93	0x3de9a027	0.114075
94	0x3eb60001	0.35546878
95	0xbdce1ff1	-0.10064686
96	0x3e37c245	0.17945202
97	0xbe37de61	-0.17955925
98	0xbd9608b6	-0.0732588
99	0xbf235a8b	-0.6381003
100	0xbf07900d	-0.5295418
101	0xbe865a46	-0.26240748
102	0xbeedb094	-0.4642378
103	0x3e850c43	0.25985917
104	0x3f2925ac	0.6607311
105	0x3e68fa8e	0.22751829
106	0x3e19a8a6	0.1500574
107	0xbe63da21	-0.22251178
108	0xbdb041a8	-0.08606273
109	0xbe106996	-0.14102778
110	0xbd480f78	-0.048842877
111	0x3de6b3ae	0.1126474
112	0xbd4b5898	-0.049645036
113	0xbdba903e	-0.09109543
114	0x3d93f24e	0.0722395
115	0xbd20427c	-0.039125904
116	0x3db40ee6	0.08791904
117	0xbd05ccf0	-0.032666147
118	0x3d83b87a	0.064316705
119	0x3d9a9856	0.07548587
120	0xbe278dbd	-0.16362663
121	0xbe3435d6	-0.17598662
122	0xbe391cd7	-0.18077408
123	0x3d8b758e	0.06809531
124	0xbe2fbe94	-0.17162544
125	0xbdc7ef2c	-0.09762415
126	0xbdb45033	-0.08804359
127	0xb9c38800	-0.00037294626
128	0x3d9f1b6e	0.07768904
129	0x3d9a2c2e	0.07527958
130	0xbdde6a7a	-0.108601525
131	0x3e01c0a8	0.12671149
132	0x3d592951	0.053017918
133	0x3d67fb00	0.056635857
134	0x3dc95952	0.098314896
135	0x3de8d42b	0.11368593
136	0x3f8421dd	1.0322834
137	0xbdb83dad	-0.08996139
138	0xbe8671e1	-0.26258758
139	0xbe034cb4	-0.12822229
140	0x3f1933d2	0.59844697
141	0xbec4b699	-0.3842056
142	0xbdd23253	-0.10263505
143	0x3cc838fa	0.024441231
144	0xbe97b5b7	-0.29630825
145	0x3e099b97	0.13438259
146	0xbd27bf41	-0.04095388
147	0xbec4f4dc	-0.38468063
148	0x3e08d80c	0.13363665
149	0x3e63a6e2	0.2223163
150	0x3e9d3aea	0.3070901
151	0xbe45bad4	-0.1930955
152	0xbea54a2a	-0.32283145
153	0x3f6375c5	0.8885158
154	0x3f93fce8	1.1561556
155	0xbe978545	-0.29593864
156	0x3f30de7b	0.6908948
157	0xbeb0d70a	-0.34539062
158	0xbea24a69	-0.31697395
159	0x3f2df325	0.67949134
160	0x3e1456cb	0.14486234
161	0x3f1e822f	0.61917394
162	0xbdb4b7dd	-0.08824132
163	0x3d08182c	0.033226177
164	0x3eb0c002	0.3452149
165	0x3ebfda07	0.3747103
166	0x3e3e83fe	0.18605039
167	0xbedabcfb	-0.42722306
168	0xbe057d4d	-0.1303608
169	0x3eb41d16	0.3517844
170	0x3e729688	0.23690236
171	0xbdd6ceb8	-0.10488647
172	0xbdf86b9b	-0.12129899
173	0x3e95a3fd	0.29226676
174	0x3f1058ac	0.563853
175	0x3e8ce66c	0.27519548
176	0x3d87e8e9	0.06636221
177	0x3e8f8183	0.28028497
178	0x3e74b93f	0.23898791
179	0x3daed8f6	0.08537476
180	0xbf2447b0	-0.64171886
181	0xbf10923e	-0.5647315
182	0x3d8ed62b	0.06974443
183	0xbed53d4f	-0.41648337
184	0x3f01171e	0.504259
185	0x3eff5d7d	0.49876013
186	0xbcaf4535	-0.021395305
187	0x3e679fb1	0.22619511
188	0xbe16a4fa	-0.14711371
189	0xbd4bd479	-0.049763177
190	0x3f32be35	0.6982148
191	0x3e23258e	0.15932295
192	0xbd7d91c2	-0.061906584
193	0xbe39977e	-0.18124196
194	0x3f3e91f6	0.7444147
195	0x3d8c5ff8	0.06854242
196	0xbe861971	-0.26191285
197	0xbdcd00e2	-0.10009934
198	0x3e51d22f	0.20490335
199	0xbd6fe6e1	-0.058569793
200	0xbead229c	-0.33815467
201	0xbeaa029f	-0.33205125
202	0x3ccbfbc9	0.024900334
203	0x3f02b4d1	0.51057154
204	0x3dea33ec	0.114356846
205	0x3cebd765	0.028789232
206	0xbda9a2d3	-0.082830094
207	0x3f47d87c	0.78064704
208	0x3f6b081e	0.9180926
209	0x3e0bfd66	0.13670883
210	0x3f07ad0d	0.5299843
211	0xbe92d92d	-0.28681317
212	0xbec3a14e	-0.38209003
213	0x3f07a9cd	0.5299347
214	0x3cefe009	0.029281633
215	0x3f0f05bc	0.55868125

l1.bias f4 [8]
0	0x3f145f4d	0.5795792
1	0x3f1b4e99	0.60666806
2	0x3ed2e699	0.41191557
3	0x3ee8a1cf	0.4543595
4	0xbe48d468	-0.19612277
5	0x3ecce65b	0.40019497
6	0x3f1275c4	0.57210946
7	0x3eb955b5	0.36198202

l2.weight f4 [8, 8]
0	0xbf3e7b51	-0.74406916
1	0x3f756622	0.9585897
2	0xbec3fcf0	-0.38278913
3	0xbd57cbae	-0.05268448
4	0x3e84d32b	0.25942358
5	0x3fb3d276	1.4048603
6	0xbe700139	-0.23437966
7	0x3fa27475	1.269179
8	0x3f9e9763	1.238995
9	0x3ca2a8dd	0.01985591
10	0xbed09056	-0.4073512
11	0x3efcae63	0.49351797
12	0xbe1400e4	-0.14453465
13	0xbe96a52e	-0.29422897
14	0x3f7a51e9	0.97781235
15	0xbf16a32f	-0.5884275
16	0x3f1cd9fa	0.61270106
17	0x3ce389a0	0.027775586
18	0xbf3dbc16	-0.7411512
19	0x3f209425	0.6272605
20	0xbea0a405	-0.31375137
21	0xbe559f2e	-0.20861503
22	0x3f379865	0.7171691
23	0xbf5a2fc8	-0.8522916
24	0x3f85fdc3	1.0468067
25	0xbf1b8584	-0.60750604
26	0x3f4f2351	0.80913264
27	0xbf572ebf	-0.84055704
28	0x3e8a9795	0.27068773
29	0x3d7c466a	0.06159059
30	0xbe1a3774	-0.15060216
31	0x3f68894b	0.9083449
32	0x3dc270f0	0.09494197
33	0xbeb66e03	-0.35630807
34	0x3f86c974	1.0530229
35	0xbf23e029	-0.64013916
36	0x3d4351a0	0.047685266
37	0x3ef6ca2a	0.48201114
38	0x3da9f61d	0.082988955
39	0x3f76c8e9	0.96400315
40	0xbd9ae5d9	-0.07563371
41	0x3f8b4c1a	1.0882599
42	0xbf0366f3	-0.51328963
43	0x3f6f6af2	0.9352256
44	0xbe32303e	-0.17401215
45	0xbdc19d08	-0.094537795
46	0x3f7b2f7b	0.98119324
47	0xbe94497f	-0.28962323
48	0xbe04fbff	-0.12986754
49	0xbd2bb124	-0.04191698
50	0xbe2920e0	-0.16516447
51	0xbe572a8f	-0.21012329
52	0xbe7fd960	-0.24985266
53	0xbdda7b7c	-0.10668084
54	0xbe0f7948	-0.14011109
55	0xbe8c3dde	-0.2739095
56	0x3f503797	0.81334823
57	0x3f0d156b	0.55110806
58	0x3f901437	1.1256169
59	0x3f51df34	0.81981206
60	0xbeb04966	-0.34431
61	0xbec64c07	-0.3872988
62	0x3f88c449	1.0684901
63	0xbebab14e	-0.36463398

l2.bias f4 [8]
0	0x3ec9f3e9	0.394439
1	0x3e13c8b8	0.14432037
2	0x3ede428c	0.43410146
3	0x3eabf516	0.33585423
4	0x3f3e3d6d	0.7431248
5	0x3eaeeded	0.34165898
6	0x3cd0bdfc	0.025481217
7	0x3f5f954d	0.8733719

l3.weight f4 [4, 8]
0	0x3f408a89	0.7521139
1	0xbf9bbadb	-1.2166399
2	0xbf514efb	-0.8176114
3	0xbfae9cdc	-1.364162
4	0xbe053ec7	-0.13012229
5	0x3f0490d5	0.51783496
6	0xbe1c8260	-0.15284109
7	0x3d4d6153	0.050141644
8	0xbf7dfc16	-0.9921278
9	0x3e6c9849	0.23104967
10	0xbe744a5d	-0.23856492
11	0x3f681e8d	0.90671617
12	0x3f56013e	0.83595645
13	0xbf7e38f8	-0.9930568
14	0x3d8005a6	0.06251077
15	0x3efea005	0.4973146
16	0xbeb1e4b5	-0.34744802
17	0x3fa2ee82	1.2729037
18	0x3f84120e	1.031801
19	0xbf936af0	-1.151701
20	0xbf587ff9	-0.8457027
21	0x3f302a50	0.68814564
22	0xbd84c444	-0.06482747
23	0x3ea40d21	0.32041267
24	0x3f0726ba	0.5279347
25	0xbf924ce9	-1.1429721
26	0xbe6fabc4	-0.23405367
27	0x3f029dd2	0.51022065
28	0x3f052fec	0.5202625
29	0xbfa4fe0e	-1.2890031
30	0xbd78227e	-0.06057977
31	0xbf3979e6	-0.7245163

l3.bias f4 [4]
0	0xbe00d564	-0.12581402
1	0x3eb84bf4	0.35995448
2	0xbdc632bd	-0.09677646
3	0xbd88e093	-0.06683459
